model/model_fnn.pth (torch, 39892 bytes, 9 tensors)

weight f4 [64, 29]
00000000: e502 e8bd f211 043e cfec 09be 6cc2 c1be
00000010: aff0 903b 61c1 2bbe 1078 183d b317 85bd
00000020: 0aa8 e3be 78a6 713e 3ad0 3fbe cbe5 823c
00000030: 7e23 993e 1793 66bd bf09 853e 00cd 983e
00000040: a363 003e b196 a63e d810 d7bd 013a ae3e
00000050: 232a ba3d abbf ccbd 9ec6 50be 7852 33be
00000060: ee7c 863d 9630 bf3e 585a 88be d0f5 d93d
00000070: 0653 03be b417 2bbe 24ad 9cbe 3f19 63be
00000080: 1eee d4bd fc40 1e3e ca44 103e 3bd3 993d
00000090: 5c77 4b3d 55a2 66be c0f1 44be a1b6 cd3d
000000a0: 7564 033d 8a83 a6be e04a 80be e48b c33d
000000b0: 4976 2f3e 41ac a33d b853 65bd 2ccb e53d
000000c0: 036a 4a3e 5d98 ab3e 44fd 9abd 0bb0 403d
000000d0: ac63 dc3e 5b16 37be d5c2 073f 4f2e 25bf
000000e0: ad91 f8be d7fa cb3e d02c b33e ff66 8a3d
000000f0: 6813 133e 97c9 10be 1728 3b3e a08b a83e
00000100: ddad e33d 981d abbd bf2f 2dbe 8e47 5dbe
00000110: b6dd b73d 5a28 cabd 34a2 05be ea3a 573c
00000120: 6fef 163e 534a cd3d 65c9 b9be 71a2 35be
00000130: ebda 8dbd 2c9c c6bc 3e07 523e ceff 6d3e
00000140: 05d6 8d3e 9cd3 35bd a98f 90be 857b a03e
00000150: 94c7 08bf 9343 38bf b258 adbe 5028 b0be
00000160: 01c8 3e3e 7309 d93e 0972 c1be a0fb 1c3e
00000170: 06af 0c3e 10ad 85bd c39f 6a3d 3229 c3be
00000180: e39d 3d3e 312f 2e3e a955 183e cf40 3f3e
00000190: 750d 43be 24b6 18be 82fe 13be 4007 573e
000001a0: 616e 0dbe 48f2 863d 0e5b 283d b9fe f73c
000001b0: ac09 b83e 8ca7 0abe 065b afbd cf3b 49be
000001c0: 6846 81be 011e 0d3e 3769 26bf 4a59 89be
000001d0: 8d74 1b3e abf3 863e 18e0 713e c0ef 29bd
000001e0: 26bf 40be 5473 b5bd 5174 c7bc a615 33bc
000001f0: ee45 5ebd f5e8 d0be 4281 4ebc 7f5d f63d
00000200: fe70 393e a34e 9abe 1c6d 623e 60e8 203c
00000210: d0fd a23d 4b84 f33d 784b 233e 614c a4be
00000220: c597 0ebf e994 f33d 3042 cf3e 0d64 44be
00000230: 0422 683e 6f3f 6bbe 766d 92be d0ef ddbe
00000240: 6214 00bf 9a72 afbe 4a92 1dbd 400e cbbd
00000250: 927f b0ba 20b2 7a3d 8517 c2bc 19a6 613d
00000260: ebfc 773e d029 8e3e 72f1 0abc 5f89 0abd
00000270: b234 b2be 228d 26be ec1d b63d a6b3 763e
00000280: 2fd4 babd d73a 5dbe 6760 56bd dddc 84be
00000290: 882f bebe 5d94 cabd 845e 1bbe 1da8 0bbe
000002a0: 332f ffbd fbcf 813e 6a15 fa3b d86f 1ebe
000002b0: c749 8bbd e916 0b3e 5a88 0a3e 89f2 3abd
000002c0: f109 bcbe 87e6 12bf 7fe6 853d 955c a33d
000002d0: ce7e 33bc d75c 3abd 3e1d b73e 5c58 6bbe
000002e0: 8642 c3bd 9dca 08bd 29ee b23d 42b5 b33d
000002f0: abed d23e e46e 89be fb2b 54be 9bfb 423c
00000300: 1e23 213f 3012 953e c8d5 023e e53a f6bc
00000310: 9f78 17bd 336e 8ebc 84a9 3e3e b9f0 1ebf
00000320: 38f0 28be 5dca 2abe eb22 793b 52fb 22be
00000330: c285 8f3e 80cb 203e a474 a63d a565 9a3c
00000340: 606b d43d 14d7 b2bc 8d6e 2b3d 5054 6c3e
00000350: 452d c63d 5e3b fcbd e7b9 953e 7414 2a3c
00000360: b0ee 333d 9baa 30be fb53 b63e 46b8 3d3e
00000370: afdc ff3d 88dc 0e3e c5d7 ad3e 37bc 3a3d
00000380: 2bc3 a13e b3cb 96be 1621 193f f2e4 103f
00000390: 2b13 33be dfba 13be 1878 a13b a7b2 d6bb
000003a0: 1567 84bc 8c53 e6bd 3bec 97bd 2955 40be
000003b0: e027 eb3d f253 ba3e 75a1 83bd 338e 7e3e
000003c0: 76af dabd 11c5 1a3e 1988 693e 6b51 10bd
000003d0: 74b7 b3be 3e91 a23e 883f 51be dd9a b43d
000003e0: 5ef9 c23d 966e a63d 01cc 9fbe 7b92 6b3e
000003f0: f222 6a3e 2064 803b eb40 143e db02 21bf
-0.11328677 0.1289747 -0.13469242 -0.37843645 0.004423223 -0.16772987 0.037223876 -0.06498661
-0.4446414 0.23598659 -0.18731776 0.015978714 0.2990989 -0.05629262 0.25983998 0.29843903
0.12538008 0.32536843 -0.105012596 0.34028628 0.09090068 -0.09997495 -0.20388266 -0.17511928
0.06566797 0.37341756 -0.26631427 0.10642588 -0.1282464 -0.16708261 -0.30600846 -0.221776
-0.1039698 0.15454477 0.14088741 0.07510992 0.049674377 -0.22522862 -0.19232845 0.10044599
0.032078225 -0.3252223 -0.25057125 0.095481664 0.17134966 0.07991839 -0.055988044 0.112203926
0.19767003 0.3351468 -0.07567838 0.047042888 0.43044794 -0.17879622 0.53031665 -0.64523786
-0.48548642 0.39839813 0.34995127 0.06757926 0.14362872 -0.141394 0.18277012 0.32919025
0.11117146 -0.08355254 -0.16912745 -0.21609327 0.08977835 -0.09870978 -0.13050157 0.013136605
0.14739774 0.10023942 -0.36286464 -0.17737748 -0.06926521 -0.02424439 0.20510575 0.23242113
0.27702346 -0.04439126 -0.28234604 0.31344238 -0.5342953 -0.7197811 -0.33856732 -0.34405756
0.18630983 0.42390022 -0.37782314 0.15330362 0.13738641 -0.0652715 0.057281267 -0.38117367
0.1851726 0.1701019 0.14876427 0.18677066 -0.19048102 -0.14913231 -0.14452556 0.2099886
-0.13811637 0.0658918 0.04110246 0.030272828 0.3594488 -0.13540477 -0.08562283 -0.19651721
-0.25249028 0.13780977 -0.65004295 -0.26825935 0.1518118 0.2635778 0.23620641 -0.04148841
-0.18822917 -0.08859888 -0.024347456 -0.010930454 -0.05426591 -0.40802732 -0.01260406 0.12029552
0.1810951 -0.3013812 0.22111934 0.0098210275 0.07958567 0.11890467 0.15946758 -0.32089522
-0.5570033 0.11893637 0.40480185 -0.19178791 0.22669226 -0.22973417 -0.28599137 -0.43347025
-0.500311 -0.34267122 -0.03846959 -0.09914827 -0.0013465753 0.06120503 -0.023692856 0.055090044
0.24217574 0.27766275 -0.008480417 -0.033822414 -0.34805828 -0.16264775 0.08892426 0.24091968
-0.09122502 -0.21604477 -0.05233803 -0.25949755 -0.37145638 -0.09891579 -0.15172774 -0.13638349
-0.124601744 0.2535399 0.0076319473 -0.15472353 -0.06801181 0.13582958 0.13528576 -0.045641456
-0.36726335 -0.57383007 0.06538104 0.07976643 -0.010955526 -0.045498695 0.35764498 -0.22982925
-0.09534173 -0.033396352 0.08736832 0.087748066 0.4119695 -0.26842415 -0.20719902 0.011900808
0.6294421 0.29115438 0.12776864 -0.03005738 -0.036980268 -0.017386531 0.18619353 -0.62086064
-0.16497886 -0.16678758 0.0038015197 -0.15916184 0.28031737 0.15702629 0.08127716 0.018847296
0.10372043 -0.021831073 0.041853476 0.23079038 0.09676603 -0.12316011 0.29243395 0.010380853
0.043928802 -0.17252581 0.35610947 0.18527326 0.12493264 0.13951313 0.33953682 0.045589652
0.31594214 -0.29452285 0.5981611 0.5659934 -0.17487781 -0.14426754 0.0049276464 -0.0065520587
-0.016162435 -0.11246404 -0.07418104 -0.18782486 0.11482215 0.3639217 -0.0642728 0.24858932
-0.10677998 0.15114237 0.22805823 -0.035233896 -0.351009 0.31751436 -0.20434391 0.088186
0.09520219 0.08126561 -0.3121033 0.23005097 0.22864893 0.003918186 0.14477889 -0.6289498

bias f4 [64]
00000000: 2b47 b1be 5507 ed3d 973f e43e 1bf4 073d
00000010: 3994 93bb 7a10 b93d 85a7 90bd b8ee 06be
00000020: abcf 313d 0e51 0b3d cec9 d1be d505 733d
00000030: e6c4 94be 4f09 50bd 6fd2 3abd cdc8 7e3c
00000040: 3d91 f1bd 2f5e b6bc a19c f03e 4de0 3a3b
00000050: c5bb e5bc 6a1b b9be fa51 9b3c da66 b9bd
00000060: d6ee eebc e072 08be b9eb b03c 65ea b1be
00000070: b89e 0ebe d22a 79be f341 f13d 5118 a0be
00000080: 8f9a 1dbe 9b9e e63d d991 16be c636 cfbe
00000090: 51c1 2bbe a953 febd 5b28 c6be e6d4 9dbe
000000a0: 28a2 9bbe e2a9 20be 8de4 38be 66aa 83be
000000b0: 9965 3bbe 2c77 a1be 540f 47be 30cd 443d
000000c0: ea61 acbe a6f7 cbbd a40f 0f3c eb0f cebd
000000d0: 5d77 aebd a0db 4abe 4354 d53e 4054 a9bd
000000e0: 9896 433a 2d9f 8cbe b9d2 a6be 9fba 8fbe
000000f0: 8d0a 33be 09da 16bd 4268 14be eb42 4fbe
-0.3462461 0.11573664 0.44579765 0.03319178 -0.0045037535 0.09036346 -0.07063202 -0.13177001
0.04341094 0.034012847 -0.40974277 0.059331734 -0.29056472 -0.050790127 -0.04561084 0.015550804
-0.1179528 -0.022261707 0.46994498 0.0028515041 -0.028043637 -0.36153728 0.018959988 -0.090528205
-0.02916662 -0.13325071 0.021596776 -0.3474914 -0.13927734 -0.24332741 0.11780157 -0.31268552
-0.1539099 0.1126072 -0.14704074 -0.40471476 -0.16772963 -0.12418301 -0.38702664 -0.3082649
-0.30397153 -0.15689805 -0.18055935 -0.2571594 -0.18300475 -0.31536233 -0.19439441 0.048047245
-0.33668453 -0.099593446 0.008731756 -0.1006163 -0.085188605 -0.19810343 0.4166585 -0.082680225
0.00074611 -0.2746519 -0.32582644 -0.28072068 -0.17484494 -0.03682903 -0.14492896 -0.20240371

weight f4 [64, 64]
00000000: 0966 f0bd f71a 923d e5fb 403e a018 b33d
00000010: 342d 123b 2220 ca3c e3f7 1d3b 17bc afbd
00000020: 13c5 58bd b7e3 f93d 18fd 8fbe 64bf b73b
00000030: d6a9 45bb f189 e2be e0c9 1abe 5657 21be
00000040: a4d3 8f3e c269 093e d6d2 11bd 6d16 d53d
00000050: fc9b 0dbf 933f 46bd c139 90be 48cb e0be
00000060: ed89 763c 9a42 9aba ec4c 17be 71d7 b8be
00000070: 9e89 27be 1e19 54be 7b5e fa3d 00f8 60be
00000080: ceca 6bbd 2bd0 173e 10f9 9cbc 6825 7abe
00000090: df6b 29be 5e02 c2be 6d46 12bf cb78 0a3e
000000a0: ce5c b8be 237f cabb 0dc3 393d 9056 3bbf
000000b0: cb6e 853d 519c 9abe b8a3 b3be b69c 613d
000000c0: 7191 073c 9017 40bc 2971 043e 391d 8dbd
000000d0: 6444 93be 5812 2abe 7b18 f53d d924 3bbe
000000e0: 329e b03d 1e67 473d cce0 0ebe 1931 7a3d
000000f0: 1913 0ebe d2f0 d1be 1244 c9bd 3623 633d
00000100: e5c2 313c f8b7 6f3e dd01 103e 01bc eb3e
00000110: 438d eebe ecfd a7be 2c85 f93d 0006 30bd
00000120: b368 813e 4fa4 22be e1c3 90be 4980 01be
00000130: f3ed 3e3e 2d72 023f 0e71 ec3e 1816 f4bc
00000140: 4318 92be ba19 c3bc ae85 2a3e 2975 a63d
00000150: 8d0b 113f fca5 20bd 86ec 463e ef38 233f
00000160: da68 48be 3906 463c 1eef b43e 48f1 713e
00000170: f0bb b33e 7378 5d3e 79e5 403e 0b7b df3e
00000180: a87d 163e b70c 193e a428 b23d 6a24 5b3e
00000190: f064 793e 63e5 7e3e bb51 e33e 702a 8a3a
000001a0: 1e3d 2d3e f2c1 43be dce1 9e3b f706 b43e
000001b0: 2e98 a6be 8c61 9e3e 2cfd 163d 97a6 24be
000001c0: 4c3a c7bd 8174 55be c722 b13d ee83 d0bb
000001d0: b993 b83b 146c e83d 9e14 abbd f5d4 62bc
000001e0: f96c 9e3d a223 623d a673 ca3b 32c8 2d3e
000001f0: 373f 8a3e e2db 583e 1c8a 3e3c 464d 0b3f
00000200: 1c16 9fbd 4936 b43c 4d00 213e 5a67 413d
00000210: 505c 163e cf7a bdbd 751e 04bd 179b 193e
00000220: 55a9 85bd 8594 863e ab79 0dbe f98c 363e
00000230: ca6b 4d3d 5506 11bf fefe b3be 82c2 f1be
00000240: 68a7 bc3d 17ae 173e 67a6 30be 6f37 abba
00000250: a6b3 60be 5e0f 913c 47d4 29be 5b19 8dbe
00000260: d323 3a3e 2962 d63d 239b bcbd 0081 923b
00000270: 0da9 f7be d1b4 72be 0630 f73c 0c87 78bd
00000280: 3047 18be d395 9cbc b260 ecbd 99b6 24be
00000290: de12 a9be 8f53 3fbe eb6e f4be 67c3 a23e
000002a0: 6a40 2b3c 933d 473c dc61 1cbf aeb3 4fbf
000002b0: ed17 c83d 3ee3 bfbd 0417 8ebe 8411 1b3e
000002c0: f8c2 a8bd e903 1d3e 26a7 0abe 5421 8a3c
000002d0: 00e9 a5bb 1002 71be d269 323c 2a00 b0be
000002e0: 0df2 64be 6d76 d0bd 76d1 afbe 13a5 0cbe
000002f0: ba05 0e3c 992d 2f3d cf53 de3d 7d64 39bd
00000300: ff39 8e3d 0deb 8abd 4df5 50be df95 303e
00000310: c3d0 a2bc d0ab 24be 9238 6bbe d21c 31bc
00000320: 80ef 103d 58e2 2d3e b3d1 043e ac2f 0bbe
00000330: 1855 933e b04f c73e 0450 553d 89f1 723d
00000340: 886c ab3d 50f8 82be a8a8 cebc 4aac 6dbe
00000350: f952 943e 3a3d 1b3e 191f 053f 5263 a33e
00000360: 78b9 a2be 2c3b 12be 9cea 563e a9d0 843e
00000370: a733 b53e 7593 643f c0ae d5bd 5d16 ce3e
00000380: ed32 7f3d 7714 8d3e 5bf7 36bd 940d c33e
00000390: 4481 143d eda4 6e3d 9b0f 663f 512a 98be
000003a0: b7e6 a03e 7b1d 82bc 25a3 1b3d 7e4f f03e
000003b0: 5be4 2abe 9431 e3bd 0af2 cc3d e4a0 f1bd
000003c0: 64c7 07bb d51e aabc 3307 0b3e 303f a2bd
000003d0: 347b 3b3e 5ba4 203e 88cd a4bd d3f1 c93e
000003e0: 7108 0b3d be84 243e 7ef1 fe3e 88ba 463d
000003f0: 89d3 793e 83ce bb3e 898b c6bd 39c0 8fbe
-0.11738212 0.071340494 0.1884609 0.08744931 0.0022304775 0.024673525 0.002410405 -0.08580797
-0.05292232 0.12201636 -0.28122783 0.0056075323 -0.0030161045 -0.44245866 -0.15116072 -0.15755972
0.28091156 0.1341925 -0.03560146 0.10404668 -0.5531614 -0.048400473 -0.28169063 -0.4390509
0.0150475325 -0.0011769116 -0.14775437 -0.3610187 -0.1636109 -0.20712706 0.12225052 -0.21969604
-0.057566456 0.14825504 -0.019161731 -0.24428332 -0.16545056 -0.3789243 -0.5713871 0.13522641
-0.36008304 -0.0061797067 0.04535203 -0.7317896 0.06515273 -0.30197385 -0.35085845 0.05508109
0.008274422 -0.011724368 0.12933792 -0.068903394 -0.28763115 -0.1660856 0.1196756 -0.18275775
0.08623923 0.048682325 -0.1395294 0.06108198 -0.13874473 -0.41004044 -0.098274365 0.0554535
0.010849689 0.23410022 0.14063211 0.46041873 -0.4659215 -0.32810915 0.12183604 -0.042974472
0.25275192 -0.15882991 -0.28274444 -0.12646593 0.18645458 0.5095547 0.46180004 -0.029795691
-0.28534135 -0.023815978 0.16652557 0.08127815 0.5665825 -0.039220795 0.19426164 0.6375875
-0.19571248 0.012086445 0.35338682 0.23627198 0.35104322 0.21627979 0.18837537 0.43648562
0.14696372 0.14946257 0.08699158 0.2140061 0.24354911 0.24892192 0.44398293 0.0010541212
0.16917846 -0.19116953 0.004848702 0.35161564 -0.3253798 0.30933797 0.036862537 -0.16079174
-0.09727916 -0.20845224 0.086492114 -0.0063633835 0.0056328443 0.11348739 -0.08353542 -0.013844718
0.07735629 0.055209763 0.006178337 0.169709 0.27001354 0.21177629 0.0116296075 0.54414785
-0.07767889 0.021998541 0.15722771 0.047217704 0.14683652 -0.092519395 -0.03225561 0.15000568
-0.06526438 0.26285186 -0.13815944 0.17827214 0.050151624 -0.56650287 -0.3515548 -0.4721871
0.09211618 0.14812504 -0.17250977 -0.0013062785 -0.2194353 0.017707523 -0.16584884 -0.27558407
0.18177728 0.10467941 -0.092092775 0.0044709444 -0.48371163 -0.23701788 0.030174267 -0.060675666
-0.14870906 -0.01911441 -0.11541881 -0.1608528 -0.33022207 -0.18684219 -0.47740874 0.31789705
0.010452369 0.0121606765 -0.6108682 -0.81133544 0.097701885 -0.09369515 -0.27751935 0.151434
-0.08240312 0.15333523 -0.13540325 0.016861595 -0.005063176 -0.23535943 0.010889487 -0.34375125
-0.2235796 -0.10178838 -0.34339494 -0.13734846 0.0086683575 0.042768095 0.10855829 -0.04526185
0.069446556 -0.06783114 -0.20406075 0.17244671 -0.019874936 -0.16081166 -0.22970799 -0.010810094
0.035384655 0.16980875 0.12970619 -0.13592404 0.2877586 0.38927984 0.052078262 0.059312377
0.0837031 -0.25580072 -0.025226906 -0.23210254 0.28969553 0.15160075 0.52000576 0.31911713
-0.31782126 -0.14280385 0.20987934 0.25940445 0.3539097 0.892875 -0.104337215 0.40251437
0.062304426 0.27554676 -0.04466949 0.38096297 0.03625609 0.058262754 0.8986756 -0.29719785
0.3142602 -0.015883198 0.037997384 0.46935648 -0.16688673 -0.11093441 0.10007103 -0.117982656
-0.0020718211 -0.020766655 0.13576965 -0.07922208 0.18308717 0.15687697 -0.080470145 0.3944231
0.033943597 0.16066262 0.4979362 0.048517734 0.243971 0.36680993 -0.09694583 -0.28076342

bias f4 [64]
00000000: fb32 7e3e 8eda f7bd 0a7e 36be 7fcc ec3c
00000010: d0c7 d9bd 9149 92be ddd0 11be 24b3 c93e
00000020: bb37 a73d 8fbb aa3d 5bec 9dbd 5b56 d63d
00000030: 86d0 11be 8a33 90be 6081 59be f12a 6bbe
00000040: 3240 4cbd 5d5b 333e b434 5a3e f325 ab3e
00000050: 4fe3 92bd a110 18be df31 c8bd 9632 83bd
00000060: 0956 20bc b511 09be 2368 62be 5450 5abe
00000070: f811 9b3e 8f92 8e3e 8cba 3cbe aa85 85bd
00000080: 9b8d 88bd 008c 093e 6089 333e 58d2 5fbe
00000090: 38d8 9f3e c906 59be 8ea4 ffbd e7d0 83bd
000000a0: 2f33 763e fd83 8fbe 3530 26be dcc3 37bd
000000b0: 03bb 87be 520d df3d 23cc a13e 4468 adbe
000000c0: 926b 8ebd 89c5 9b3e 5034 9dbb 0b0c 84be
000000d0: e8e5 e2bd 6a56 543e 4737 28be fc04 febd
000000e0: a00e b73e dd09 253d cdd8 813e 7992 47be
000000f0: d5eb 72be 32d3 0c3e 23f3 0a3e fc1d 8f3d
0.24824135 -0.12102233 -0.17821518 0.028906105 -0.10633814 -0.28571752 -0.14239831 0.39394486
0.081649266 0.08336555 -0.07711097 0.1046569 -0.14239702 -0.2816432 -0.21240759 -0.229656
-0.04986591 0.17515321 0.21309167 0.3342739 -0.07172262 -0.14850093 -0.09775137 -0.06406133
-0.009786137 -0.13385661 -0.22110038 -0.21319705 0.30287147 0.2784619 -0.18430537 -0.06519635
-0.06667634 0.13432312 0.17532873 -0.21857584 0.3121965 -0.21193995 -0.12482558 -0.06436329
0.24042962 -0.28030387 -0.16229327 -0.04486452 -0.26509866 0.108912125 0.31601056 -0.3386861
-0.06954111 0.30424145 -0.004797496 -0.25790438 -0.110790074 0.2073609 -0.16427337 -0.124032944
0.35753345 0.04029261 0.25360718 -0.19489469 -0.23722775 0.1375244 0.13569312 0.06988141

weight f4 [32, 64]
00000000: 0933 b53c 720b 9ebc 03e9 afbd b361 c13e
00000010: 8a56 0cbe 1992 813d 269e 26be 2766 1dbd
00000020: d818 133e 1852 2ebd 1cef ca3d b0dc 63be
00000030: 5142 cdbc 6e0c 463d 86e6 a03e 7ed2 253e
00000040: c41f 61bd 1d6e 253e 4fcf f3bc 45c8 d83c
00000050: bbde 673d a414 ddbe 6fb1 823d 7a05 d03e
00000060: 6e74 1b3e 6e09 fc3d 38bc 953d 2418 c7bd
00000070: c52b 943e a2f2 0d3e e6fc 553d 6ff6 3d3f
00000080: 3efd 9a3d c9ac 08be 3077 573e b6f4 3bbe
00000090: c403 d73c f96e 31bd 77cb 4dbe a52d 39bd
000000a0: bdee 2bbd 44f8 45be d652 963a 4a96 0abd
000000b0: a467 c53d 35a1 c43e ef57 0bbe 5824 773a
000000c0: 8557 c7bc 8cce 8cbd afa9 5fbe 054c c8bd
000000d0: e52f d0bd 0a85 ce3d 103d a13e 34f2 a13e
000000e0: 63e1 863d 0612 5abe fe40 593d 1594 8fbd
000000f0: c2ae 773e 75cf db3d 8ff9 a23e d366 1b3d
00000100: 961f dbbd dc01 893e 1703 8dbe 7071 a53d
00000110: 9408 dc3c 155c 963b b296 583e 9079 75bd
00000120: ea0f 5bbd a0ca 9cba 4ba2 b2bc 7b8c 73be
00000130: 3bb0 af3e 86c0 733d 71d4 183e 7052 563e
00000140: 366f e43d e411 4fbe cde2 8dbd fbdf cfbe
00000150: 0615 cc3d 74ae dabe 57a8 cfbb ecb6 afbd
00000160: 7c1f cd3e 6bb1 263e 8cc0 ea3d 6d10 01be
00000170: f52e 72bd a38a 65bd 10f9 5bbd a7ca 393f
00000180: a91b 4d3d 538f 5d3d 1b6e 083d 8559 b63e
00000190: 2e2a 7a3e 580d b93e 7d70 383e 3107 e8bc
000001a0: f1c3 383e bab1 943e 1696 af3d a1b6 88be
000001b0: 5cae 803e f7b2 0b3f 7c13 93be 68c0 8f3c
000001c0: b9ab 6f3e cb2f 6fbe ffed 1fbe 7b2f b73e
000001d0: 9cfb fd3d 748b 20be ccd9 363e 741b 103e
000001e0: 6144 893d 14a0 80be 990b 353d ea99 803e
000001f0: a7fd d93e c605 393d 3b70 b63e 87ef 253e
00000200: 1b96 8abd 1caf d13e 2bc6 b33d d028 613e
00000210: ca7d e8bd 4e9d 9b3e 633b c33d 2210 423d
00000220: 38b3 d73d bbd4 5a3e 663f 1cbe 15bc 5dbe
00000230: 7787 293f 2262 213e 6dc2 9dbd 4c15 253e
00000240: acf1 783e e145 c63d 3069 1bbd 0574 95be
00000250: 338d 713c 9ab6 e2bd bf76 aebd 607f 973e
00000260: aed8 8d3e 25fc 24bd fbee 453e ae1c b3be
00000270: abde 31bd 6fc6 09bd a80d 04be 9745 173f
00000280: a34c cd3d 64a3 533d 04dd 233c 73bd 163f
00000290: 4069 4f3c b735 c03e 81e6 b13e e17d 423d
000002a0: d769 af3d fe3f b13e e895 333e eefd 00be
000002b0: dfde af3e 987f dd3e 11fa 91be ed61 d7bd
000002c0: 050a 883e 6139 c93d 6062 94be b7f1 073f
000002d0: 1774 483e b618 bb3d aa2a 0d3e df84 3b3e
000002e0: 77c2 33be 2bab 48bd a632 ca3d f75a d63e
000002f0: 1571 af3e 55c7 8ebd 3672 133f e0f5 403e
00000300: 5f22 edbd c232 d63e 401b a7be b00b 823d
00000310: 881d 0bbe a14a 633e a7ba 48bb 325b 1f3e
00000320: c745 7cbd 7895 c93d d513 95bd d122 b0bb
00000330: 6dc1 653e 3624 e53d 0dcb 583e 50c1 ae3d
00000340: 16c4 433d f4a1 2ebe 8027 fb3c ec0f a4be
00000350: 3c2e 303e e6d2 17bf 3baa 8a3c 2708 a6be
00000360: 9b69 be3e 915f c63d 41eb 7c3e efea 993b
00000370: 53ec 0e3e 52c4 c2bd 1a9b fd3d deee 0a3f
00000380: d31d 3c3e a444 823e 984c efbd ccf7 603e
00000390: f4db 573e 4557 883e c61d 6b3e d110 24be
000003a0: 5428 133e eca3 3d3e c405 c5bd 2ba2 15be
000003b0: ba19 843e d885 373f dd2c 93be 3d96 fe3d
000003c0: 20b6 a43d abaa 64be 5c0a 6abe 1a5f a63e
000003d0: bb25 8f3d 2d09 0fbe 6c16 a4bc a6d0 a93e
000003e0: 31c6 57bd e249 bcbd f86b 123d 4e9c b03e
000003f0: 5780 ae3d 59c7 1b3e dec1 9b3e 782d c23d
0.022119062 -0.019292567 -0.08589365 0.3776985 -0.13704887 0.06326694 -0.16271266 -0.0384275
0.14364946 -0.04255876 0.09908888 -0.22252154 -0.025056036 0.048351698 0.31425875 0.16193578
-0.054961935 0.16155286 -0.029761938 0.026462683 0.056608897 -0.4317981 0.06381499 0.40629178
0.15181133 0.12306486 0.073112905 -0.09721401 0.28939644 0.13862088 0.052243136 0.7420415
0.07567833 -0.13347162 0.2104156 -0.18355069 0.026246913 -0.043318722 -0.20097147 -0.045209546
-0.041975725 -0.19332987 0.0011468779 -0.033834733 0.096389085 0.3840424 -0.13607763 0.0009427718
-0.024333725 -0.06875333 -0.21842073 -0.097801246 -0.10165385 0.10083969 0.314919 0.316301
0.06585958 -0.21295938 0.053040497 -0.07010666 0.24187759 0.10732929 0.31831023 0.037939858
-0.10699384 0.2675923 -0.2754142 0.08078277 0.02685956 0.0045886138 0.21151236 -0.059930384
-0.053481974 -0.0011962242 -0.021805903 -0.23784058 0.3431414 0.059509777 0.1492479 0.20929885
0.11154024 -0.20221668 -0.069280244 -0.4060057 0.099649474 -0.42711222 -0.0063372063 -0.085798115
0.40063083 0.16278617 0.11462507 -0.12603922 -0.059126813 -0.056040417 -0.05370432 0.7257485
0.050075207 0.054091763 0.03330813 0.35615173 0.24430153 0.36142993 0.18011661 -0.028323742
0.18043496 0.29041845 0.085735485 -0.26701835 0.25133026 0.54569954 -0.28725803 0.017547801
0.2340535 -0.23358075 -0.15618132 0.35778412 0.12401506 -0.15678197 0.1785652 0.14072973
0.06702495 -0.2512213 0.044200514 0.25117427 0.42576334 0.04517152 0.356325 0.16204654
-0.067669116 0.4095391 0.08778032 0.21988225 -0.11352117 0.3039345 0.095328115 0.047378667
0.1053223 0.21370213 -0.1525856 -0.21653779 0.6622233 0.15760091 -0.077030994 0.16121405
0.2431094 0.09681297 -0.03794211 -0.29190078 0.014743137 -0.11069985 -0.08518743 0.29589367
0.27704376 -0.040279526 0.19329445 -0.34982818 -0.043425243 -0.033636507 -0.12895834 0.5909056
0.10024383 0.051669493 0.010001425 0.58882827 0.012659371 0.3754098 0.34746173 0.04748333
0.08565109 0.34619135 0.17537653 -0.12596866 0.34349725 0.4326141 -0.28511098 -0.10516725
0.26570144 0.09825397 -0.28981304 0.531032 0.19575535 0.091355726 0.13785806 0.18312405
-0.17554651 -0.048991363 0.09872942 0.41866276 0.34265962 -0.06971613 0.5759615 0.18843794
-0.115788214 0.418356 -0.32637978 0.063498855 -0.13585484 0.22196437 -0.0030628832 0.15562132
-0.061589982 0.09842962 -0.07279173 -0.005375244 0.22437067 0.11188547 0.21171208 0.08532965
0.047794424 -0.17053968 0.030658484 -0.32043397 0.17205137 -0.5930618 0.016926875 -0.32428095
0.37189946 0.096861966 0.24699117 0.0046971957 0.13957338 -0.095101014 0.12383099 0.5427073
0.18370752 0.25442994 -0.11684531 0.21969527 0.21079999 0.2662908 0.22960576 -0.1602204
0.14370853 0.18519562 -0.0962024 -0.14612643 0.25800878 0.71688604 -0.28745165 0.124309994
0.0804255 -0.2233073 -0.22855514 0.32494432 0.069896184 -0.13968344 -0.020030223 0.33167
-0.052679244 -0.091937795 0.0357475 0.3449425 0.08520573 0.15212764 0.30421346 0.09481329

bias f4 [32]
00000000: e3ef 76bd 5bc6 02be aefd 5f3d 0af3 a3bd
00000010: 6512 6b3e b4c8 993e 79cf d33e f544 c0bd
00000020: 5b2f da3e 972d 203f 7a2f d53e 8335 633d
00000030: a0cd d43e cedd bb3e 164f cbbd 2b99 133f
00000040: b0e4 ce3e 6dce 043f 8144 d6bd b84c 40be
00000050: 07ca a73c b5c9 02bf c156 f5bd 73e5 e13e
00000060: 1006 57be cb6c 0bbd e863 0dbe b006 863e
00000070: 05a8 1fbe 4341 32bd 2b27 da3e feb9 31bd
-0.060287368 -0.12770979 0.054685287 -0.080053404 0.22956236 0.30035937 0.41369227 -0.093881525
0.42614254 0.62569565 0.41637784 0.055470955 0.4156313 0.3669266 -0.09927194 0.5765559
0.4040885 0.5187748 -0.10462285 -0.18779266 0.020482076 -0.5108903 -0.119794376 0.44120368
-0.20998406 -0.0340393 -0.13807642 0.26176977 -0.15591438 -0.04351927 0.42608008 -0.043390267

weight f4 [16, 32]
00000000: 8549 4e3e a9ce 1dbe ab2a b3be b0aa f4bd
00000010: 6b3a 4ebd 3022 9d3e b0b0 c43e 7c3c babd
00000020: f827 3bbd 3117 003e 804d 863e 3aac 01bf
00000030: d65e ce3e d281 04be b9ac 233e 125b 543c
00000040: 7108 8c3e 1cc0 d63e 4f86 4cbe aff0 8abe
00000050: 1bdb a3be 5d59 6ebe f6ce e1bc c5f8 c33e
00000060: 025c f9bd 13b0 06bf b0dc 15bb 98d7 403e
00000070: 3d79 4f3d f551 5cbd b0ea be3e 03b8 84be
00000080: aba2 253e d9f7 a1bc c76d f0bc fb7c 08be
00000090: aba6 aabd 5829 64bb ded5 083d cc42 943b
000000a0: 3b09 82bd 10d5 70bd b1d9 2d3e 4e96 e6bd
000000b0: 496e 443e 656d 5b3e 75c4 c13d 0d8d f23d
000000c0: d283 1ebd 70d1 173e 3884 3ebe 8f44 8ebe
000000d0: 47b4 78bc 3c1d 273e e8fc b83d e554 bd3e
000000e0: 867a 99bd b631 813d 3a3a 1cbe 2d75 8c3d
000000f0: ce99 a1be 8700 943e eb17 943e 3bca b1bd
00000100: 4129 9cbd 3884 943e 1319 a13e 8e4b 473e
00000110: e018 80be 1956 ecbc 7062 cbba 3d78 163e
00000120: f446 87bd 7f28 0f3e 9627 e0bd b674 ae3e
00000130: 8012 cebe 451d 913d ef42 b1bd 2ef3 543e
00000140: e091 b1bc b765 b7bd e075 6dbe 15d8 073f
00000150: 6b4b a13d dad6 4fbe 12e6 c23e 6a0b 99bd
00000160: c47a 08bc 74cc 4d3e fa10 6f3e f5b8 0fbe
00000170: 8d09 f63e e614 3a3e 7112 9cbe 6ba0 453c
00000180: 75b9 203e e245 023e 228b 143e da18 673e
00000190: c561 5dbe 9e16 76be 3873 87bd 9323 53bd
000001a0: a3a2 0abe 13bd ab3d dc6b 99be 3599 013e
000001b0: 9964 c3bd f4de d93b cb95 98bc dc63 30be
000001c0: 81d6 78bd 98a1 65be 7350 94be 714e b83e
000001d0: 8b63 203e 1932 06be de14 983d 2652 18bd
000001e0: c36c 1d3e ed04 973e a937 9ebc 2f5a 1fbe
000001f0: b1e3 963e 35de 3d3e ef41 a0be 3629 693e
00000200: 0a21 9fbd 3fb3 a4be 9f43 a6be b0de bbbe
00000210: 1ea9 1e3e f3ac 263e af8a 4a3e 99e8 063d
00000220: 86e9 62bd 4f1d 6c3e 4be3 ae3e 1f63 e4be
00000230: d120 4e3e ca9b ce3d 8205 22be a78c 5e3d
00000240: 1795 763e 21fe 2b3e c3e3 74be b3af 60bd
00000250: b017 67be d0ab f33d cc82 99be c232 753e
00000260: 5193 90bd c7b2 6dbe 9660 ba3c 5720 e83d
00000270: fed1 95be 8090 27be b87f a83e a5c8 12be
00000280: 0424 883e 7fb7 253e 7500 ae3e f924 843e
00000290: 27ef f5bd 83a9 aabe 4243 9abe 6567 83bd
000002a0: abee 0c3d d493 57bb 0b21 bfbe 9f62 b03e
000002b0: 5111 70bd 8b0d 093e a7ed 283e cfc5 1f3e
000002c0: 2b69 7fbe 96b5 d2bd 6db2 4bbe 6e77 c93e
000002d0: 24dd 863e 4846 d9be c6b3 953e 9832 b8be
000002e0: 5032 733e d913 963e 7852 823e 0da0 a5be
000002f0: 56c7 b03e b8f1 093e 09cf d9be fbca 013e
00000300: 3000 7c3d 4126 153e 1d74 c0bc 6681 16be
00000310: f571 383e 7974 2fbd fc0f 5d3e b207 a7bd
00000320: 4450 683d a0f4 cd3d 4e63 9d3e 78da 6ebe
00000330: 3fc7 c93e 0963 a53e da0b 6b3c 7282 5e3e
00000340: 9932 8a3e 4448 e13e f675 e33c 7652 0bbe
00000350: c9b1 d43d 30bf d03c e079 3bbe 42eb 6c3e
00000360: 366f cf3d c122 f5bd 3e94 053e 9181 5d3e
00000370: 3497 39be 9bb7 543d b733 e83e 57cb 40bd
00000380: 932a b73c 7571 f4bd 8cbb e5be ef63 b2be
00000390: 1e4f 593d 8993 ba3c 3e7a 8c3e 53fb edbd
000003a0: 3a42 443e 89b4 f03d 5130 003f aac9 c3be
000003b0: ea4f 923e 7b4f 1b3e 608d e0bd e696 4dbe
000003c0: d4ee 153d 9049 f73e 0f4a eebd 4d23 93be
000003d0: 94c9 3abe 6698 0abe 2786 8ebe 8a04 563e
000003e0: 293a 72bc 5657 bfbe 6b4f 23be 68be ee3c
000003f0: a956 21be 282c 023d cf52 bf3e 50bc 95be
0.20145233 -0.15410866 -0.3499349 -0.119466186 -0.05034868 0.30690145 0.38416052 -0.09093568
-0.045692414 0.12508847 0.26231003 -0.5065342 0.4030673 -0.12940148 0.15983857 0.012961166
0.2735019 0.41943443 -0.1997311 -0.27136752 -0.32003102 -0.23276277 -0.027564507 0.38275734
-0.12175752 -0.5261242 -0.0022867136 0.18832242 0.05065273 -0.053789098 0.37288427 -0.2592164
0.16175334 -0.019771503 -0.02934922 -0.13328926 -0.08332571 -0.0034814682 0.033407085 0.0045245644
-0.06349417 -0.058796942 0.16977574 -0.11259137 0.19182695 0.2142845 0.09461299 0.118433096
-0.038699932 0.14825988 -0.18605125 -0.2778668 -0.0151797 0.16319746 0.09032613 0.36978832
-0.074940726 0.0630831 -0.15256587 0.06858287 -0.31562656 0.28906652 0.28924498 -0.086811505
-0.07625056 0.29007125 0.31464443 0.19462416 -0.25018978 -0.028849648 -0.0015517008 0.14694305
-0.0660533 0.13980292 -0.109450504 0.34073418 -0.4024849 0.07085661 -0.08655345 0.2079589
-0.021676004 -0.089549474 -0.23189497 0.5306409 0.07875713 -0.20296803 0.38066155 -0.0747288
-0.008330051 0.20097524 0.2334632 -0.140354 0.48054162 0.18172035 -0.3048282 0.012062172
0.15695746 0.1272197 0.145062 0.22568074 -0.21619327 -0.24032065 -0.06613773 -0.051547598
-0.13538603 0.083856724 -0.29965103 0.126561 -0.09540672 0.0066488925 -0.018626114 -0.17225593
-0.060751442 -0.22424924 -0.28967628 0.35997346 0.15662973 -0.13105048 0.07425855 -0.037187718
0.1537352 0.29495946 -0.01931365 -0.15561746 0.2947059 0.18541797 -0.31300303 0.22769627
-0.077699736 -0.32168004 -0.32473466 -0.36693335 0.154942 0.16276912 0.19779466 0.032936666
-0.055398487 0.23058055 0.34157786 -0.44606873 0.20129706 0.10088308 -0.15822414 0.054333355
0.24080311 0.16796161 -0.23915009 -0.05485506 -0.2256763 0.11898005 -0.29982603 0.23945144
-0.070593484 -0.2321273 0.022751134 0.11334293 -0.29261774 -0.16363716 0.32909942 -0.14334352
0.26589978 0.1618328 0.33984724 0.25809458 -0.12008505 -0.33332452 -0.3012944 -0.06416205
0.0344073 -0.003289451 -0.37329897 0.34450242 -0.058610264 0.13384072 0.16496907 0.15602802
-0.24942462 -0.10288541 -0.19892283 0.3934893 0.26340592 -0.42436433 0.2923872 -0.359761
0.23749661 0.29312018 0.25453544 -0.32348672 0.3452708 0.13471115 -0.42540768 0.12675087
0.061523616 0.14565374 -0.023492867 -0.14697799 0.18012221 -0.042835686 0.21588129 -0.08155765
0.056717172 0.10056424 0.30739826 -0.23325527 0.39409825 0.3230212 0.014346087 0.21729448
0.26991728 0.44000447 0.02776621 -0.13605675 0.10385472 0.02548179 -0.1830821 0.23136619
0.10128634 -0.119695194 0.13044831 0.21631457 -0.18124086 0.051932912 0.45351955 -0.04706892
0.022359168 -0.11935703 -0.4486965 -0.34841868 0.053053968 0.022775428 0.27437013 -0.11620202
0.19165888 0.11753184 0.50073725 -0.38239795 0.28576595 0.15167038 -0.10964465 -0.20077094
0.036604717 0.4829831 -0.11635219 -0.2873787 -0.18240958 -0.13534698 -0.27836725 0.20900169
-0.014784374 -0.3737132 -0.15948264 0.029143527 -0.15755714 0.031780392 0.37367865 -0.29245234

bias f4 [16]
00000000: aa85 8d3e 6d4e 1f3e ddbd 9e3e 70b1 9a3e
00000010: 2fd2 b63e b28e 833e d30b b93d b410 3c3e
00000020: 6c61 9c3e ad44 8e3e cb2c b43e 33a3 923e
00000030: de1b 573e 0ecf a93e a87a 0a3e e5ad a23e
0.2764104 0.15557261 0.3100423 0.302135 0.35707232 0.25694805 0.090354584 0.18365747
0.30543077 0.2778677 0.35190424 0.28640136 0.21006724 0.33165783 0.13523352 0.31773296

weight f4 [1, 16]
00000000: c20b e53e ceb4 8b3d 7e3d 89be 28ac 44be
00000010: dd6e 383e 55f9 a7be 526e 393e 57d0 d33e
00000020: 4227 253e 88b1 b53e 897b 663e 28e3 9b3e
00000030: de06 b4be 3dc9 80be c75b 1ebe 9438 073e
0.44735533 0.06821595 -0.26804727 -0.19206297 0.18011041 -0.32807413 0.1810849 0.41369888
0.16128257 0.35487008 0.22508062 0.30446744 -0.3516149 -0.25153533 -0.15464698 0.13205177
